outputs_checkpoints/u_network.0.pth (torch, 13809 bytes, 10 tensors)

_impl.layers.0.linear.weight f4 [32, 1]
0	0xbed0e91e	-0.40802854
1	0xbdc83bd4	-0.09777036
2	0x3db183fb	0.086677514
3	0x3e16c02f	0.1472175
4	0x3eb259fe	0.34834284
5	0x3e022b5d	0.12711854
6	0x3e7a29f1	0.24430062
7	0x3e21cee2	0.15801576
8	0x3eb55f00	0.35424042
9	0xbdbd47a4	-0.0924218
10	0xbe960d77	-0.29307148
11	0xbe4aafea	-0.19793668
12	0xbeafc768	-0.34331822
13	0x3e22741c	0.15864605
14	0x3e3ee0de	0.18640468
15	0x3e94234b	0.28933176
16	0x3bc8a3bb	0.006123034
17	0xbe56e18a	-0.20984474
18	0x3d81a803	0.06330874
19	0x3e5ec717	0.21755634
20	0xbe553047	-0.20819198
21	0x3ec9d28d	0.3941845
22	0x3e921359	0.28530386
23	0xbdae36b1	-0.08506525
24	0x3e617664	0.22017819
25	0xbce2bce5	-0.027677963
26	0xbe02c9b3	-0.12772255
27	0x3ecd4b99	0.4009674
28	0x3e0bc0e9	0.13647808
29	0x3ddfb20a	0.1092263
30	0xbe8d20ac	-0.2756399
31	0xbed442e3	-0.4145728

_impl.layers.0.linear.weight_g f4 [32, 1]
0	0x3f7b9c73	0.982856
1	0x3f827c89	1.0194255
2	0x3f7e1267	0.9924683
3	0x3f7f8b3c	0.9982183
4	0x3f7f4870	0.99719906
5	0x3f7e2982	0.99282086
6	0x3f7ca6a7	0.9869179
7	0x3f7f5f1f	0.9975452
8	0x3f7e7425	0.9939597
9	0x3f78a94e	0.9713334
10	0x3f77320b	0.96560735
11	0x3f831526	1.0240829
12	0x3f849c65	1.0360228
13	0x3f805453	1.0025734
14	0x3f7e4edb	0.99339074
15	0x3f7f0e5e	0.996313
16	0x3f7d73fd	0.9900511
17	0x3f85f892	1.0466483
18	0x3f7e82b8	0.9941821
19	0x3f7ee380	0.9956589
20	0x3f846fb9	1.0346595
21	0x3f7eff0e	0.9960793
22	0x3f801a50	1.000803
23	0x3f8159c8	1.0105524
24	0x3f7e5ae3	0.9935743
25	0x3f813307	1.0093697
26	0x3f82f90b	1.0232252
27	0x3f7ad27e	0.97977436
28	0x3f7db17f	0.9909896
29	0x3f7e6435	0.99371654
30	0x3f82dcec	1.022367
31	0x3f8341e1	1.025448

_impl.layers.0.linear.bias f4 [32]
0	0xbbabaa0e	-0.005238778
1	0x3cc87d51	0.024473818
2	0x3c00db0e	0.007864727
3	0xbbb108da	-0.0054026665
4	0x3b8de5af	0.004330359
5	0xbc49261c	-0.012277152
6	0x3b9e03ac	0.004822215
7	0xbbbff8c2	-0.0058585117
8	0xbc158e9c	-0.009128239
9	0xbd099634	-0.03359051
10	0xbca4a2d3	-0.020097172
11	0x3c94050a	0.018068809
12	0x3cefb7f3	0.029262519
13	0x3bec52dd	0.0072120265
14	0xbc06d0d5	-0.0082285
15	0xbbe6decd	-0.007045603
16	0xbc1908c4	-0.009340469
17	0x3d13f9e3	0.036126982
18	0xbc20d6fe	-0.009816883
19	0xbb5c08e1	-0.0033574628
20	0x3abd8a8e	0.0014460848
21	0xbba3d674	-0.00499993
22	0x3b8da82e	0.004323027
23	0x3c992e3a	0.0186988
24	0xbb94df90	-0.0045432523
25	0x3cb55fc7	0.022140397
26	0x3d2c87e4	0.042121783
27	0xbcc4e643	-0.024035579
28	0xbad2c491	-0.001608031
29	0xbc1213f0	-0.008915886
30	0x3cdee966	0.027210902
31	0x3c67071b	0.014100815

_impl.layers.1.linear.weight f4 [32, 32]
0	0x3ea06f13	0.31334743
1	0x3d0d2708	0.03446105
2	0x3dc87ac0	0.09789038
3	0xbe84520b	-0.25843844
4	0xbe8a4df9	-0.27012613
5	0x3e982a30	0.29719687
6	0x3e0fdb3c	0.14048475
7	0x3e6167ef	0.22012304
8	0x3e8d618b	0.27613482
9	0xbe0d6fdf	-0.13812207
10	0x3e68ebcc	0.227462
11	0x3d5265bd	0.051366556
12	0xbe428f33	-0.18999939
13	0x3d73d3ab	0.059528034
14	0x3d41b4c5	0.047291536
15	0x3e81258b	0.25223956
16	0x3d55a32d	0.05215757
17	0xbe2e3562	-0.17012551
18	0x3d54c61c	0.051946744
19	0x3dc8fc95	0.09813801
20	0x3e3fe2d8	0.18738878
21	0x3e2b5537	0.16731726
22	0xbd9584f2	-0.07300748
23	0xbdff880b	-0.1247712
24	0x3dae8efc	0.08523366
25	0xbe8b2915	-0.2717978
26	0xbd4485e3	-0.047979247
27	0xbe7c6b85	-0.2465039
28	0xbe68ce1e	-0.22734877
29	0x3e899e2c	0.26878488
30	0xbe91dd7d	-0.28489295
31	0xbe18e5e6	-0.1493145
32	0x3e9cdc63	0.30636892
33	0x3e7b6f90	0.24554276
34	0xbe0a19a1	-0.13486339
35	0xbd8052af	-0.06265771
36	0xbe78d929	-0.2430159
37	0xbe02ee12	-0.12786129
38	0x3e4d0cec	0.2002446
39	0x3db2fb8a	0.087393835
40	0xbdd2146e	-0.10257803
41	0xbe07bbf8	-0.13255298
42	0x3e53f54a	0.20699039
43	0x3e11dd9a	0.1424469
44	0x3e3ae9bc	0.18253225
45	0x3e331e56	0.17492041
46	0xbe91cea6	-0.28477973
47	0xbe3e3be7	-0.18577538
48	0xbe35fbe5	-0.17771871
49	0xbe5a9965	-0.21347578
50	0x3b6f7fcb	0.0036544676
51	0x3e32eeb7	0.17473875
52	0x3e69ee79	0.22844876
53	0xbda611ab	-0.08108839
54	0x3df500d2	0.11963047
55	0xbe1858e7	-0.14877664
56	0x3daa606f	0.083191745
57	0xbbb46a18	-0.0055058114
58	0x3db77e9d	0.089596964
59	0xbda86dc8	-0.08224064
60	0x3e5ac7fe	0.21365353
61	0x3daf47ee	0.085586414
62	0x3e8d185f	0.27557656
63	0x3e4c79bc	0.19968313
64	0x3e52cf34	0.20586854
65	0x3e138030	0.14404368
66	0xbd5e2264	-0.054232016
67	0x3b83dae0	0.0040238947
68	0xbe8e4b30	-0.2779174
69	0xbe8a57ee	-0.2702021
70	0x3e3621d3	0.1778634
71	0x3dc0863b	0.094006024
72	0x3e743e44	0.23851877
73	0xbdbe7367	-0.09299355
74	0x3e15f174	0.14642888
75	0xbe86bcdb	-0.2631596
76	0x3e045c2f	0.1292579
77	0x3dc3d0cf	0.095613115
78	0xbd0cfa80	-0.034418583
79	0x3c7e0825	0.0155048715
80	0x3c5d77ae	0.013517303
81	0x3e33964a	0.175378
82	0xbbe2925e	-0.006914421
83	0x3dbded0f	0.09273731
84	0xbdc2fbda	-0.09520693
85	0xbd95e6b4	-0.07319394
86	0xbc92969e	-0.017894085
87	0xbcf55682	-0.029948477
88	0x3e9745c5	0.29545417
89	0x3d1e68db	0.038674217
90	0x3e72edb0	0.23723483
91	0x3e993641	0.29924205
92	0x3de11894	0.10991016
93	0x3e960dea	0.2930749
94	0xbe4d14b9	-0.20027436
95	0x3cad8d9f	0.021185694
96	0x3dff532f	0.12467038
97	0xbea2c8ba	-0.31793767
98	0xbe5a3c3d	-0.21312042
99	0x3e947fc3	0.29003724
100	0xbe65f9d1	-0.22458579
101	0xbe8404e5	-0.25784984
102	0xbdecf71a	-0.115705684
103	0x3e967fb4	0.29394305
104	0xbe6c9a8a	-0.23105827
105	0xbe08a2c5	-0.13343342
106	0x3dc02289	0.09381587
107	0x3e9abeb3	0.30223617
108	0x3e431ff1	0.19055153
109	0xbe6fcf62	-0.23418954
110	0xbdcad457	-0.09903782
111	0xbdf0d6e7	-0.11759739
112	0xbbc2ba14	-0.0059425924
113	0x3e02ee87	0.12786303
114	0xbe4c98b8	-0.19980133
115	0x3e48e45f	0.19618367
116	0x3eabef1c	0.33580863
117	0xbe680e89	-0.22661795
118	0x3c7ccd05	0.01542974
119	0xbda651b6	-0.08121054
120	0xbe83b3a0	-0.2572298
121	0x3e88d85b	0.26727566
122	0xbdef56bc	-0.11686465
123	0xbe60a157	-0.21936546
124	0xbe669ba6	-0.22520313
125	0xbe5fb440	-0.21846104
126	0xbdc43a46	-0.09581427
127	0xbcaa36ec	-0.020778142
128	0xbc727b1a	-0.0147998575
129	0x3d507938	0.050896853
130	0x3db6d5c0	0.08927488
131	0xbd808a0d	-0.06276331
132	0x3e86eaab	0.26350912
133	0x3e66ec88	0.22551167
134	0x3d50ac3c	0.050945505
135	0x3d94bd44	0.07262662
136	0x3d6e1ffa	0.058135964
137	0xbdd84ec1	-0.10561896
138	0xbe386ed1	-0.18011023
139	0x3db8dc09	0.090263434
140	0x3d8a3945	0.067492045
141	0xbe6b233b	-0.22962658
142	0x3e2be69c	0.16787189
143	0xbe203530	-0.1564529
144	0x3d5afaa6	0.053461693
145	0xbe98b6fd	-0.2982711
146	0x3e017b69	0.12644733
147	0x3e1d8ea7	0.15386449
148	0x3e120801	0.14260866
149	0xbe7597c3	-0.23983674
150	0x3d816069	0.06317217
151	0x3e851212	0.2599035
152	0x3cf6755c	0.030085258
153	0xbcf73289	-0.030175464
154	0xbe96428d	-0.2934765
155	0xbd9e4d7b	-0.07729622
156	0x3e216f1b	0.1576504
157	0xbdb4a15d	-0.0881984
158	0xbc5beafd	-0.013422725
159	0xbd4c0430	-0.04980868
160	0x3e725a60	0.23667288
161	0x3ca4d7ce	0.020122435
162	0xbe2ae3b8	-0.1668843
163	0x3e708602	0.2348862
164	0xbe2cb6a0	-0.16866541
165	0x3d7f476d	0.062323976
166	0xbccee4f3	-0.025255656
167	0xbe4e6758	-0.2015661
168	0xbe5a7597	-0.2133392
169	0xbe516f87	-0.204527
170	0xbe6afc8f	-0.22947906
171	0x3e681a6f	0.22666334
172	0x3e3b45da	0.18288365
173	0xbe294eee	-0.16534016
174	0x3d85e1e2	0.06537224
175	0xbe88066f	-0.26567408
176	0xbdf4abe2	-0.119468465
177	0x3e72eaa2	0.23722318
178	0x3e74f8b8	0.23923004
179	0x3d50b631	0.050955
180	0x3e89df09	0.26927975
181	0x3d823eff	0.06359672
182	0xbdc4951d	-0.095987536
183	0x3db818ba	0.08989091
184	0xbe27a0f0	-0.16369987
185	0xbd169103	-0.036759388
186	0x3e61f85a	0.22067395
187	0xbe63a313	-0.22230177
188	0xbca3182e	-0.01990899
189	0x3e739c77	0.23790155
190	0x3dc4f0a3	0.0961621
191	0x3e1542a7	0.14576207
192	0xbceb5b32	-0.028730009
193	0x3e991184	0.29896176
194	0xbe971d0c	-0.29514349
195	0xbd847429	-0.06467468
196	0xbbbf3f8f	-0.005836434
197	0x3d2ea06f	0.04263347
198	0x3e8f5f1d	0.28002253
199	0xbc6b6447	-0.01436717
200	0x3e4bb2a8	0.1989237
201	0xba796460	-0.0009513553
202	0xbe9322e1	-0.28737548
203	0x3e77a7fb	0.24185173
204	0x3e5b9671	0.21444108
205	0x3e171baa	0.14756647
206	0x3e43f9b6	0.19138226
207	0x3e3468ef	0.17618154
208	0xbddcca69	-0.10780794
209	0xbe28d957	-0.16489159
210	0xbd97a8aa	-0.07405217
211	0xbd2720f7	-0.040802922
212	0x3e7862cd	0.2425644
213	0xbe851ce9	-0.2599862
214	0x3d6a5519	0.05721006
215	0xbe67a9be	-0.22623345
216	0x3e8299d6	0.25507993
217	0xbe594fdb	-0.21221869
218	0xbe4f10c3	-0.20221238
219	0x3e3f3c0e	0.18675253
220	0x3e87b731	0.2650695
221	0x3e85b78a	0.26116592
222	0x3e8c6c7a	0.2742651
223	0xbdba7e8d	-0.09106169
224	0xbe661c8f	-0.22471832
225	0xbde2bef0	-0.11071575
226	0xbe83296e	-0.25617546
227	0xbd878f8d	-0.06619177
228	0xbd47e406	-0.048801444
229	0xbe0acf05	-0.13555534
230	0x3d35bfef	0.044372495
231	0x3dea7476	0.114479944
232	0xbe87fe1d	-0.2656106
233	0x3e0486fc	0.12942117
234	0x3e394c29	0.18095459
235	0x3e83a046	0.25708216
236	0xbe9bc09d	-0.3042039
237	0x3e8c53bf	0.27407643
238	0xbe5dfe48	-0.21679032
239	0x3c52aabe	0.012858091
240	0x3e2c4fbe	0.16827294
241	0xbd49d42e	-0.049274616
242	0x3e538e1b	0.20659678
243	0xbd970d52	-0.073755875
244	0xbea47943	-0.32123765
245	0x3e941728	0.28923917
246	0x3e1853ce	0.14875719
247	0xbe35a62b	-0.1773917
248	0x3e785238	0.24250114
249	0xbdd5d5a0	-0.10441136
250	0xbe90bb66	-0.28267974
251	0x3e126bbc	0.1429891
252	0xbdc3b1f0	-0.09555423
253	0xbe3413a7	-0.17585622
254	0x3e11c1ef	0.14234136
255	0xbdc0e5db	-0.094188415

_impl.layers.1.linear.weight_g f4 [32, 1]
0	0x3f7efa2a	0.9960047
1	0x3f7f051e	0.99617183
2	0x3f7f160c	0.99643016
3	0x3f7abc99	0.9794403
4	0x3f7fbec9	0.9990049
5	0x3f847c7d	1.0350491
6	0x3f7d6b6c	0.9899204
7	0x3f817303	1.0113224
8	0x3f7b090f	0.980607
9	0x3f7bc814	0.9835217
10	0x3f7fcfa2	0.999262
11	0x3f7d78a9	0.9901224
12	0x3f7c6a7f	0.986
13	0x3f823c07	1.0174569
14	0x3f7e8f6f	0.9943761
15	0x3f80017e	1.0000455
16	0x3f7bd770	0.98375607
17	0x3f82930e	1.0201128
18	0x3f7f003e	0.99609745
19	0x3f828e3c	1.0199656
20	0x3f7a1377	0.9768595
21	0x3f7be22f	0.98392004
22	0x3f7f6258	0.99759436
23	0x3f80d5d4	1.0065255
24	0x3f7ed75e	0.99547374
25	0x3f7e8c40	0.99432755
26	0x3f7be3ea	0.98394644
27	0x3f81aae7	1.013028
28	0x3f7f5055	0.9973195
29	0x3f7ebd5d	0.99507695
30	0x3f7b9b98	0.9828429
31	0x3f7e1719	0.99253994

_impl.layers.1.linear.bias f4 [32]
0	0xbc2a4e10	-0.010394588
1	0x3d0f50a5	0.034989018
2	0xbb8a83f5	-0.0042271563
3	0x3c95f50e	0.018305328
4	0x3b2551c0	0.0025225729
5	0x3cde255a	0.02711742
6	0xbc327fbb	-0.010894711
7	0x3c145465	0.009053324
8	0x3b5bdbda	0.003354779
9	0x3c8573be	0.016290542
10	0xbb0bee8e	-0.0021351906
11	0xbc629059	-0.0138283605
12	0x3c375b6a	0.011191228
13	0x3d18265e	0.037145965
14	0x3b9d6b6b	0.004804065
15	0xbcaeb62d	-0.021327103
16	0xbc3e3f6c	-0.011611801
17	0x3d326881	0.043556694
18	0xbb409aa7	-0.0029389055
19	0x3d141e2d	0.03616159
20	0x3c2d8c48	0.010592528
21	0xbc5d4007	-0.013504035
22	0xbbc3ee15	-0.0059793093
23	0x3ba2ac0f	0.0049643586
24	0x3aa041a3	0.0012226593
25	0x3a9815cd	0.0011603177
26	0xbc4e8790	-0.012605563
27	0x3c1e7106	0.009670502
28	0xbc03bdbf	-0.008040844
29	0xbc58b6e5	-0.013227199
30	0x3c058f9e	0.008151917
31	0xbc1750dc	-0.009235587

_impl.layers.2.linear.weight f4 [32, 32]
0	0x3e3912c5	0.18073566
1	0x3e740cdb	0.23833029
2	0xbdbdf410	-0.09275067
3	0xbd8397fc	-0.06425473
4	0xbe9ce228	-0.30641294
5	0xbda0315f	-0.07821917
6	0x3d96a5b7	0.07355826
7	0xbc8cc58b	-0.01718404
8	0x3df8d6c4	0.12150338
9	0xbcc39653	-0.023875391
10	0xbe3ffad9	-0.18748035
11	0xbe75f626	-0.2401968
12	0xbe577088	-0.21039021
13	0x3e3da65f	0.18520497
14	0x3e99ca8c	0.30037344
15	0x3e1c39a5	0.15256365
16	0x3de95947	0.113939814
17	0xbe4ecfcd	-0.20196457
18	0x3dda3f52	0.10656609
19	0x3de49976	0.11162083
20	0x3e4ba70c	0.19887942
21	0x3e99e7d4	0.30059683
22	0x3e80c2a2	0.25148493
23	0x3dbecacc	0.09316024
24	0xbe87c960	-0.26520824
25	0x3e9173cb	0.28408656
26	0xbd8e8d9e	-0.06960605
27	0xbe97f123	-0.2967616
28	0xbdf74e6b	-0.12075504
29	0xbe196f56	-0.14983878
30	0xbdf5d83b	-0.12004133
31	0xbb1fa07a	-0.0024357126
32	0x3e9c44f9	0.30521372
33	0xbd9644c4	-0.07337335
34	0xbd2e7914	-0.042595938
35	0xbda76584	-0.081736594
36	0xbe90b4b6	-0.28262872
37	0x3d8d492b	0.06898721
38	0xbe572eb6	-0.21013913
39	0x3e823447	0.2543051
40	0xbd9d9e0b	-0.0769616
41	0x3e07e367	0.13270341
42	0x3e4f631b	0.2025265
43	0x3e98f793	0.29876384
44	0xbe2f6d40	-0.1713152
45	0x3e4c4879	0.19949521
46	0xbe83bae4	-0.25728524
47	0xbc879265	-0.016549299
48	0xbe0b7eaa	-0.13622537
49	0x3e30f1e7	0.17279778
50	0xbddd6270	-0.10809791
51	0xbe44fb2b	-0.19236438
52	0x3e1a28e3	0.1505466
53	0xbe5fbfd8	-0.21850526
54	0xbe10bbf8	-0.14134204
55	0x3e35bd50	0.17747998
56	0xbddeefe3	-0.108855985
57	0xbe83d049	-0.25744846
58	0x3b2f0c93	0.0026710376
59	0xbbb34655	-0.0054710307
60	0x3e4c4d8d	0.19951458
61	0xbd3ef64b	-0.046621602
62	0xbd50c15a	-0.050965644
63	0xbe80a128	-0.25122952
64	0x3d451383	0.04811431
65	0xbd708d56	-0.05872854
66	0x3e0270be	0.1273832
67	0xbd36c526	-0.04462161
68	0xbe957bf1	-0.29196122
69	0xbe28bec5	-0.16479023
70	0xbe94b051	-0.2904077
71	0x3e3a8fbb	0.18218891
72	0xbe2a5363	-0.16633372
73	0x3d9e9b97	0.0774452
74	0x3e35bedb	0.17748587
75	0x3caa466f	0.020785538
76	0x3e444ab2	0.19169119
77	0x3e2bc5db	0.16774695
78	0xbb3a4859	-0.002842447
79	0x3e4626d7	0.19350754
80	0x3d0f5ce3	0.035000693
81	0xbcf75db0	-0.03019604
82	0x3e71a28a	0.2359716
83	0x3cb3e816	0.021961253
84	0xbe48bc70	-0.19603133
85	0x3e4079d5	0.18796475
86	0xbc983678	-0.01858066
87	0xbe63fa98	-0.22263563
88	0xbe65a663	-0.22426753
89	0xbe280d19	-0.16411246
90	0xbe6a05e9	-0.22853817
91	0xbe075a78	-0.13218105
92	0xbdd3bc5c	-0.10338661
93	0x3e8a291d	0.26984492
94	0x3d88f9dd	0.06688283
95	0xbda0fe2d	-0.0786098
96	0x3d973771	0.073836215
97	0xbe3d6df9	-0.18498982
98	0xbe8853fc	-0.26626575
99	0xbe04321b	-0.12909739
100	0xbe260721	-0.16213657
101	0x3ea41d13	0.32053432
102	0xbdaea956	-0.08528392
103	0xbe81d39a	-0.25356752
104	0xbcd4c5cc	-0.025973223
105	0xbe15aefc	-0.14617532
106	0xbc2bed6e	-0.010493619
107	0xbdf56585	-0.11982254
108	0xbe328771	-0.1743448
109	0x3e3a62c1	0.18201734
110	0xbea1513e	-0.31507295
111	0x3e8a9dcd	0.27073517
112	0x3e5d54b6	0.21614346
113	0xbd90505e	-0.07046579
114	0x3e8521b3	0.26002273
115	0x3e661412	0.22468594
116	0x3dea4250	0.11438429
117	0x3e3e3434	0.18574601
118	0xbe0a8af8	-0.13529575
119	0xbd02a0c3	-0.031891596
120	0x3d2b8c55	0.041881878
121	0x3e7c60d7	0.24646316
122	0xbdcf6ce9	-0.10128195
123	0xbdaa7bcc	-0.08324394
124	0x3d808d95	0.06277005
125	0x3c0955e5	0.008382295
126	0x3c71de57	0.014762483
127	0xbd9c5fe2	-0.07635476
128	0x3e4aef9d	0.19817968
129	0xbcb1f035	-0.021720985
130	0xbdf36ccf	-0.11885988
131	0xbd3d848f	-0.046268996
132	0xbe863560	-0.26212597
133	0x3e24f8a9	0.16110481
134	0xbe688a1d	-0.22708936
135	0x3d75db65	0.060023684
136	0x3d6a734d	0.057238866
137	0xbe79cec3	-0.2439528
138	0x3dcb0ab9	0.099141546
139	0xbe42ad16	-0.1901134
140	0x3e609054	0.21930057
141	0xbd941879	-0.0723123
142	0x3e671560	0.22566748
143	0xbda1eee9	-0.079068966
144	0x3e6dbc39	0.23216332
145	0x3e32b458	0.17451608
146	0x3d4a60eb	0.049408834
147	0x3e341856	0.17587408
148	0x3e5780aa	0.21045175
149	0x3e4b0235	0.1982506
150	0xbe624fe2	-0.22100785
151	0xbdd7a51d	-0.1052954
152	0xbe9b5123	-0.3033534
153	0xbd6c25ea	-0.057653345
154	0x3d465a54	0.048425987
155	0x3d2423c1	0.04007316
156	0xbce92035	-0.02845774
157	0xbe3b4f9b	-0.18292086
158	0x3cc3366f	0.023829667
159	0xbd8f6a95	-0.07002751
160	0xbe9b2265	-0.30299678
161	0xbcb9f78d	-0.02270105
162	0x3dcb037b	0.09912773
163	0xbd753fda	-0.059875347
164	0x3e702925	0.23453195
165	0xbcf6ac64	-0.0301115
166	0xbdc56be2	-0.09639718
167	0x3e8ee547	0.279093
168	0x3d23c8ef	0.039986547
169	0xbba64522	-0.0050741592
170	0xbc61e479	-0.013787382
171	0x3e35ca4a	0.17752948
172	0xbdd26dd0	-0.10274851
173	0xbe4ac887	-0.19803058
174	0xbe3abdce	-0.18236467
175	0xbde52a7d	-0.111897446
176	0x3dd6f3a6	0.10495691
177	0x3e8cdbc4	0.27511418
178	0xbe909240	-0.2823658
179	0xbe5b3abc	-0.21409124
180	0x3e69a7fa	0.22817984
181	0x3e74bb31	0.23899533
182	0xbd8c64ca	-0.068551615
183	0xbe9ce297	-0.30641624
184	0xbdec10c3	-0.115266345
185	0x3e8abd33	0.27097473
186	0xbe15e0de	-0.14636561
187	0xbc4c0087	-0.012451298
188	0x3e194069	0.14965977
189	0xbc56e425	-0.013115917
190	0xbe14a1cf	-0.1451485
191	0x3db900a9	0.09033329
192	0xbe2c6e88	-0.1683904
193	0xbe2b2044	-0.16711527
194	0xbcf4334a	-0.029809613
195	0x3e7df44a	0.2480022
196	0xbd6b8675	-0.057501275
197	0x3cbd9c77	0.023145897
198	0xbe7126c0	-0.23549938
199	0xbcd59ac8	-0.026074782
200	0x3e3c59d6	0.18393645
201	0xbe6edf07	-0.23327266
202	0xbe6d9c9f	-0.23204277
203	0xbe74c7ba	-0.23904315
204	0xbe6ad38f	-0.22932266
205	0xbe8f1ee0	-0.27953243
206	0x3d8fbca1	0.070184
207	0x3dd6f69d	0.104962565
208	0xbdcc34bb	-0.09970995
209	0xbe52cf5c	-0.20586914
210	0x3cd26f3d	0.025687808
211	0x3da41d1c	0.08013365
212	0xbcf07b16	-0.029355567
213	0x3c2351db	0.009968246
214	0xbe07fe48	-0.13280594
215	0x3df41b7f	0.11919307
216	0xbd252a5a	-0.040323593
217	0xbcfdf154	-0.030998863
218	0xbd768b8d	-0.06019168
219	0xbe918d81	-0.2842827
220	0x3e4976d2	0.19674233
221	0xbdfd8be2	-0.12380196
222	0x3c7e7a98	0.015532158
223	0xbd9cde39	-0.07659573
224	0x3e6d601d	0.23181196
225	0x3e6f536d	0.23371668
226	0x3e923e2c	0.28563058
227	0x3e0ba5ce	0.13637468
228	0x3e8f4c59	0.27987936
229	0xbe33660a	-0.17519394
230	0xbe1e315e	-0.1544852
231	0xbbdb5e30	-0.0066945776
232	0x3e72ec65	0.2372299
233	0xbd90b1a1	-0.0706513
234	0xbe8118fd	-0.25214377
235	0xbe8bf91a	-0.27338487
236	0xbe53e722	-0.20693639
237	0x3d0e266a	0.034704603
238	0x3e0706a1	0.13186122
239	0xbe7799fd	-0.24179836
240	0xbe79a544	-0.2437945
241	0xbe0a24dc	-0.13490623
242	0x3dd377bc	0.10325572
243	0x3e713a75	0.23557456
244	0x3dc613d4	0.09671751
245	0xbe058e6c	-0.13042611
246	0x3e9022f3	0.28151664
247	0x3e53311b	0.20624201
248	0x3e75ad9f	0.23992012
249	0xbc591235	-0.01324897
250	0x3ce6aba0	0.028158009
251	0xbde538c3	-0.11192467
252	0xbdb59238	-0.0886578
253	0xbe927b20	-0.28609562
254	0x3e826a2c	0.25471628
255	0x3e617e76	0.22020897

_impl.layers.2.linear.weight_g f4 [32, 1]
0	0x3f7ebc78	0.9950633
1	0x3f7e7da1	0.99410444
2	0x3f7c058e	0.98445976
3	0x3f7e5451	0.99347407
4	0x3f820a78	1.0159445
5	0x3f7e6ac0	0.9938164
6	0x3f7c21d0	0.98489094
7	0x3f7ff365	0.99980766
8	0x3f7fa02b	0.9985377
9	0x3f7bc8ae	0.9835309
10	0x3f7ef3c7	0.99590725
11	0x3f7b7e88	0.98239946
12	0x3f7f2f15	0.99681216
13	0x3f7e8642	0.9942361
14	0x3f808f60	1.0043755
15	0x3f809fd1	1.0048772
16	0x3f81964c	1.0123992
17	0x3f835270	1.0259533
18	0x3f7e45a2	0.99325
19	0x3f7b11ce	0.9807404
20	0x3f7e75fa	0.9939877
21	0x3f825992	1.0183585
22	0x3f7f4b7f	0.9972457
23	0x3f7fbe4e	0.99899757
24	0x3f7c187c	0.9847486
25	0x3f7fe874	0.9996407
26	0x3f7e27d2	0.9927951
27	0x3f81c974	1.0139604
28	0x3f81e73e	1.0148695
29	0x3f7d3a5c	0.98917174
30	0x3f7c1023	0.9846212
31	0x3f7dab21	0.99089247

_impl.layers.2.linear.bias f4 [32]
0	0xbb9f7a2b	-0.0048668585
1	0x3bc2199d	0.0059234635
2	0x3b9fdd28	0.004878659
3	0xbb544963	-0.0032392375
4	0xbb509039	-0.0031824245
5	0xbc0a55c9	-0.008443304
6	0x3b9fe276	0.004879291
7	0xbb0830bb	-0.0020780999
8	0x3aba7d4f	0.0014228019
9	0x3bb939bd	0.005652635
10	0xbb84f75e	-0.004057809
11	0x3be37896	0.006941865
12	0xbbcf9460	-0.0063348264
13	0xbb9a5a7a	-0.0047104927
14	0x3be977d6	0.0071248813
15	0x3bdbed45	0.0067116343
16	0x3a469db9	0.0007576603
17	0x3b02a01a	0.0019931854
18	0xbbef1bc1	-0.0072970097
19	0x3b0243c2	0.0019876813
20	0xbb78807f	-0.0037918387
21	0x3a8c52dc	0.0010705846
22	0x3b2e6467	0.0026610137
23	0x3b1a9dd8	0.0023592617
24	0xbc1c0fd9	-0.009525263
25	0xbb20720d	-0.0024482042
26	0xbbab5d0b	-0.0052295974
27	0xbb1a4c49	-0.0023544005
28	0xb9b8625b	-0.00035168495
29	0x3a54c870	0.0008117026
30	0xbc059ae4	-0.008154605
31	0xbbe64e81	-0.0070284014

_impl.final_layer.linear.weight f4 [1, 32]
0	0x3db1be6e	0.086789
1	0xbecf3a6a	-0.40474254
2	0xbe7ee8c5	-0.24893482
3	0x3e81f4ad	0.25381985
4	0x3e0b8b94	0.13627464
5	0x3e93b120	0.28846073
6	0xbe9ad3a4	-0.30239594
7	0x3d6d8ca1	0.057995442
8	0xbe8c1707	-0.27361318
9	0xbd76d096	-0.060257517
10	0x3e822ea6	0.25426215
11	0xbca57427	-0.020196987
12	0x3e51b461	0.20478965
13	0x3e0c7bce	0.13719103
14	0xbe16db67	-0.14732133
15	0xbe03c0b9	-0.12866487
16	0x3e7cc2df	0.24683712
17	0x3ed5a123	0.417245
18	0x3e9df30c	0.30849493
19	0xbe7f6f63	-0.24944834
20	0x3e142c9d	0.14470144
21	0x3ec7f30b	0.39052615
22	0xbc333400	-0.010937691
23	0xbe2aa643	-0.16664986
24	0x3ecffa34	0.40620577
25	0x3ec10656	0.37700146
26	0x3e8628be	0.2620296
27	0x3ed3172f	0.41228625
28	0x3ed6d54f	0.41959617
29	0xbc6c282e	-0.014413876
30	0x3ecbae38	0.39781356
31	0x3e744f8f	0.23858474
